…
2021-03-11 21:00:19.862733: I tensorflow/compiler/jit/xla_cpu_device.cc:41] Not creating XLA devices, tf_xla_enable_xla_devices not set
2021-03-11 21:00:19.862935: I tensorflow/core/platform/cpu_feature_guard.cc:142] This TensorFlow binary is optimized with oneAPI Deep Neural Network Library (oneDNN) to use the following CPU instructions in performance-critical operations:  AVX2 FMA
To enable them in other operations, rebuild TensorFlow with the appropriate compiler flags.
Model: "sequential"
_________________________________________________________________
Layer (type)                 Output Shape              Param #
=================================================================
conv2d (Conv2D)              (None, 46, 46, 32)        320
_________________________________________________________________
activation (Activation)      (None, 46, 46, 32)        0
_________________________________________________________________
max_pooling2d (MaxPooling2D) (None, 23, 23, 32)        0
_________________________________________________________________
batch_normalization (BatchNo (None, 23, 23, 32)        128
_________________________________________________________________
conv2d_1 (Conv2D)            (None, 21, 21, 64)        18496
_________________________________________________________________
activation_1 (Activation)    (None, 21, 21, 64)        0
_________________________________________________________________
max_pooling2d_1 (MaxPooling2 (None, 10, 10, 64)        0
_________________________________________________________________
conv2d_2 (Conv2D)            (None, 8, 8, 64)          36928
_________________________________________________________________
dropout (Dropout)            (None, 8, 8, 64)          0
_________________________________________________________________
activation_2 (Activation)    (None, 8, 8, 64)          0
_________________________________________________________________
max_pooling2d_2 (MaxPooling2 (None, 4, 4, 64)          0
_________________________________________________________________
batch_normalization_1 (Batch (None, 4, 4, 64)          256
_________________________________________________________________
conv2d_3 (Conv2D)            (None, 2, 2, 128)         73856
_________________________________________________________________
activation_3 (Activation)    (None, 2, 2, 128)         0
_________________________________________________________________
max_pooling2d_3 (MaxPooling2 (None, 1, 1, 128)         0
_________________________________________________________________
flatten (Flatten)            (None, 128)               0
_________________________________________________________________
dense (Dense)                (None, 128)               16512
_________________________________________________________________
activation_4 (Activation)    (None, 128)               0
_________________________________________________________________
flatten_1 (Flatten)          (None, 128)               0
_________________________________________________________________
dense_1 (Dense)              (None, 64)                8256
_________________________________________________________________
activation_5 (Activation)    (None, 64)                0
_________________________________________________________________
flatten_2 (Flatten)          (None, 64)                0
_________________________________________________________________
dense_2 (Dense)              (None, 32)                2080
_________________________________________________________________
activation_6 (Activation)    (None, 32)                0
_________________________________________________________________
dense_3 (Dense)              (None, 2)                 66
_________________________________________________________________
activation_7 (Activation)    (None, 2)                 0
=================================================================
Total params: 156,898
Trainable params: 156,706
Non-trainable params: 192
_________________________________________________________________
None
Model Creation Complete!
2021-03-11 21:00:20.025096: I tensorflow/compiler/mlir/mlir_graph_optimization_pass.cc:116] None of the MLIR optimization passes are enabled (registered 2)
Epoch 1/50
…
